…
8725/8725 [==============================] - 59s 7ms/step - loss: 0.4024 - accuracy: 0.8534
Evaluation on test set:
4363/4363 [==============================] - 12s 3ms/step - loss: 0.4498 - accuracy: 0.8440

=================================================================
=================================================================
cnn_model_printedchar
Model: "sequential"
_________________________________________________________________
 Layer (type)                Output Shape              Param #
=================================================================
 conv2d (Conv2D)             (None, 28, 28, 32)        320

 conv2d_1 (Conv2D)           (None, 28, 28, 64)        18496

 conv2d_2 (Conv2D)           (None, 28, 28, 128)       73856

 max_pooling2d (MaxPooling2D  (None, 14, 14, 128)      0
 )

 flatten (Flatten)           (None, 25088)             0

 dense (Dense)               (None, 100)               2508900

 dense_1 (Dense)             (None, 62)                6262

=================================================================
Total params: 2,607,834
Trainable params: 2,607,834
Non-trainable params: 0
_________________________________________________________________

model.compile(loss=SparseCategoricalCrossentropy(), optimizer=Adam(learning_rate=0.003), jit_compile=True, metrics=['accuracy'])
model.fit(train_data, train_labels, epochs=10, batch_size=128, shuffle=True)
…
